==========================================================================================
Layer (type:depth-idx)                   Output Shape              Param #
==========================================================================================
CNN                                      [1, 4]                    --
├─Conv2d: 1-1                            [1, 8, 10, 10]            152
├─Conv2d: 1-2                            [1, 8, 10, 10]            584
├─MaxPool2d: 1-3                         [1, 8, 5, 5]              --
├─Linear: 1-4                            [1, 40]                   8,040
├─Linear: 1-5                            [1, 4]                    164
├─Linear: 1-6                            [1, 1]                    41
==========================================================================================
Total params: 8,981
Trainable params: 8,981
Non-trainable params: 0
Total mult-adds (M): 0.08
==========================================================================================
Input size (MB): 0.00
Forward/backward pass size (MB): 0.01
Params size (MB): 0.04
Estimated Total Size (MB): 0.05
==========================================================================================
…
Iteration: 1700 Score: 11.144375 Game Length: 84.1640625 Timestamp: 2026-01-01 16:44:44.811836
Iteration: 1800 Score: 11.5421875 Game Length: 86.62625 Timestamp: 2026-01-01 16:46:15.147315
Iteration: 1900 Score: 12.124375 Game Length: 88.60125 Timestamp: 2026-01-01 16:47:38.778731
Iteration: 2000 Score: 12.3 Game Length: 89.5946875 Timestamp: 2026-01-01 16:49:01.676095


==========================================================================================
Layer (type:depth-idx)                   Output Shape              Param #
==========================================================================================
CNN                                      [1, 4]                    --
├─Conv2d: 1-1                            [1, 8, 10, 10]            152
├─Conv2d: 1-2                            [1, 8, 10, 10]            584
├─MaxPool2d: 1-3                         [1, 8, 5, 5]              --
├─Linear: 1-4                            [1, 40]                   8,040
├─Dropout: 1-5                           [1, 40]                   --
├─Linear: 1-6                            [1, 4]                    164
├─Linear: 1-7                            [1, 1]                    41
==========================================================================================
Total params: 8,981
Trainable params: 8,981
Non-trainable params: 0
Total mult-adds (M): 0.08
==========================================================================================
Input size (MB): 0.00
Forward/backward pass size (MB): 0.01
Params size (MB): 0.04
Estimated Total Size (MB): 0.05
==========================================================================================
…
Iteration: 900 Score: 12.1696875 Game Length: 89.6553125 Timestamp: 2026-01-01 20:29:01.815428
Iteration: 1000 Score: 13.12375 Game Length: 93.371875 Timestamp: 2026-01-01 20:30:30.032265
Iteration: 1100 Score: 13.42125 Game Length: 95.2971875 Timestamp: 2026-01-01 20:31:59.563102









Agent gets stuck (target its own head)
==========================================================================================
Layer (type:depth-idx)                   Output Shape              Param #
==========================================================================================
CNN                                      [1, 100]                  --
├─Conv2d: 1-1                            [1, 32, 10, 10]           2,048
├─Conv2d: 1-2                            [1, 32, 10, 10]           9,248
├─MaxPool2d: 1-3                         [1, 32, 5, 5]             --
├─Linear: 1-4                            [1, 512]                  410,112
├─Linear: 1-5                            [1, 1]                    513
├─Linear: 1-6                            [1, 200]                  102,600
├─Conv2d: 1-7                            [1, 32, 10, 10]           9,824
├─Conv2d: 1-8                            [1, 1, 10, 10]            289
==========================================================================================
Total params: 534,634
Trainable params: 534,634
Non-trainable params: 0
Total mult-adds (Units.MEGABYTES): 2.65
==========================================================================================
Input size (MB): 0.00
Forward/backward pass size (MB): 0.08
Params size (MB): 2.14
Estimated Total Size (MB): 2.22
…
Iteration: 1200 Score: 28.634366863981246 Size: 36.6153125 Game Length: 144.2946875 Elapsed Time: 445.7721875 Wins: 0.0 Losses: 0.5384375 Timestamp: 2026-01-04 00:53:59.676864
Iteration: 1300 Score: 28.489409311488213 Size: 36.51375 Game Length: 141.8153125 Elapsed Time: 435.6534375 Wins: 0.0 Losses: 0.56 Timestamp: 2026-01-04 01:04:47.110894





==========================================================================================
Layer (type:depth-idx)                   Output Shape              Param #
==========================================================================================
CNN                                      [1, 20]                   --
├─Conv2d: 1-1                            [1, 32, 10, 10]           2,048
├─Conv2d: 1-2                            [1, 32, 10, 10]           9,248
├─MaxPool2d: 1-3                         [1, 32, 5, 5]             --
├─Linear: 1-4                            [1, 512]                  410,112
├─Linear: 1-5                            [1, 20]                   10,260
├─Linear: 1-6                            [1, 1]                    513
==========================================================================================
Total params: 432,181
Trainable params: 432,181
Non-trainable params: 0
Total mult-adds (M): 1.55
==========================================================================================
Input size (MB): 0.00
Forward/backward pass size (MB): 0.06
Params size (MB): 1.73
Estimated Total Size (MB): 1.79
==========================================================================================
…
