==========================================================================================
Layer (type:depth-idx)                   Output Shape              Param #
==========================================================================================
CNN                                      [1, 20]                   --
├─Conv2d: 1-1                            [1, 16, 10, 10]           1,024
├─Conv2d: 1-2                            [1, 16, 10, 10]           2,320
├─MaxPool2d: 1-3                         [1, 16, 5, 5]             --
├─Linear: 1-4                            [1, 256]                  102,656
├─Linear: 1-5                            [1, 20]                   5,140
├─Linear: 1-6                            [1, 1]                    257
==========================================================================================
Total params: 111,397
Trainable params: 111,397
Non-trainable params: 0
Total mult-adds (M): 0.44
==========================================================================================
Input size (MB): 0.00
Forward/backward pass size (MB): 0.03
Params size (MB): 0.45
Estimated Total Size (MB): 0.48
==========================================================================================
…
Iteration: 3000 Score: 2.6722148092683375 Game Length: 40.20671875 Elapsed Time: 200.96609375 Wins: 0.28 Losses: 0.08265625 Furthest Checkpoint: 97 Timestamp: 2026-01-16 19:48:48.394508
     Eval score: 12.542621220540127 Eval size: 80.96875 Eval wins: 0.6875 Eval losses: 0.3125 Eval win time: 1346.8636363636363




==========================================================================================
Layer (type:depth-idx)                   Output Shape              Param #
==========================================================================================
CNN                                      [1, 20]                   --
├─Conv2d: 1-1                            [1, 32, 10, 10]           2,048
├─Conv2d: 1-2                            [1, 32, 10, 10]           9,248
├─MaxPool2d: 1-3                         [1, 32, 5, 5]             --
├─Linear: 1-4                            [1, 512]                  410,112
├─Linear: 1-5                            [1, 20]                   10,260
├─Linear: 1-6                            [1, 1]                    513
==========================================================================================
Total params: 432,181
Trainable params: 432,181
Non-trainable params: 0
Total mult-adds (Units.MEGABYTES): 1.55
==========================================================================================
Input size (MB): 0.00
Forward/backward pass size (MB): 0.06
Params size (MB): 1.73
Estimated Total Size (MB): 1.79
…
