==========================================================================================
Layer (type:depth-idx)                   Output Shape              Param #
==========================================================================================
CNN                                      [1, 60]                   --
├─Conv2d: 1-1                            [1, 16, 28, 28]           2,816
├─MaxPool2d: 1-2                         [1, 16, 14, 14]           --
├─Conv2d: 1-3                            [1, 16, 14, 14]           2,320
├─Conv2d: 1-4                            [1, 32, 14, 14]           4,640
├─MaxPool2d: 1-5                         [1, 32, 7, 7]             --
├─Linear: 1-6                            [1, 1024]                 1,606,656
├─Linear: 1-7                            [1, 60]                   61,500
├─Linear: 1-8                            [1, 1]                    1,025
==========================================================================================
Total params: 1,678,957
Trainable params: 1,678,957
Non-trainable params: 0
Total mult-adds (M): 5.24
==========================================================================================
Input size (MB): 0.03
Forward/backward pass size (MB): 0.18
Params size (MB): 6.72
Estimated Total Size (MB): 6.93
==========================================================================================
…
