==========================================================================================
Layer (type:depth-idx)                   Output Shape              Param #
==========================================================================================
CNN                                      [1, 4]                    --
├─Conv2d: 1-1                            [1, 16, 10, 10]           1,024
├─Conv2d: 1-2                            [1, 16, 10, 10]           2,320
├─MaxPool2d: 1-3                         [1, 16, 5, 5]             --
├─Linear: 1-4                            [1, 128]                  51,328
├─Linear: 1-5                            [1, 4]                    516
├─Linear: 1-6                            [1, 1]                    129
==========================================================================================
Total params: 55,317
Trainable params: 55,317
Non-trainable params: 0
Total mult-adds (M): 0.39
==========================================================================================
Input size (MB): 0.00
Forward/backward pass size (MB): 0.03
Params size (MB): 0.22
Estimated Total Size (MB): 0.25
==========================================================================================
…
